Solution2_Android_Only/test_mediapipe_tensor/app/src/main/assets/keras_model_1652428542.tflite (tflite, 13252 bytes, 4 tensors)

dense_1/bias f4 [3]
00000000: a77e ec3b cd58 f33d a211 08be
0.0072172466 0.11882172 -0.13287976

dense/bias f4 [64]
00000000: 18ca dabd fea1 61bc 0142 ddbc b1c2 a8bd
00000010: 5bed dabd 0000 0000 0000 0000 0000 0000
00000020: 0000 0000 0000 0000 e11c 993e 0000 0000
00000030: c5d8 a4bc 68ea 9dbc e266 04be 0590 343d
00000040: b185 1cbd 0000 0000 61a9 e13d 3ecf 79bc
00000050: 8d26 08be 0000 0000 9490 5ebc 9292 173e
00000060: 3781 383e 5426 24bc 0000 0000 4cbf 07be
00000070: 0000 0000 0000 0000 4a14 603e 493b 7b3d
00000080: cf96 01be e72e 3fbc 41bd a1bd 0000 0000
00000090: 0000 0000 d9f0 9ebd 2276 2e3d 0000 0000
000000a0: ccad 65bc 0000 0000 3b20 eabb 0000 0000
000000b0: 0000 0000 8f6b 99bd 3670 643e e365 dabd
000000c0: 0000 0000 2590 4d39 0000 0000 2a0b 8fbd
000000d0: 6ee1 903d 92ba d5bc e1eb 01be 135d 23bc
000000e0: 0000 0000 dd54 fd3d 0000 0000 0000 0000
000000f0: 0000 0000 fe08 7c3e cce2 f3bc f95e 1abb
-0.106830776 -0.013771532 -0.027009012 -0.082402594 -0.10689803 0.0 0.0 0.0
0.0 0.0 0.29904845 0.0 -0.020122895 -0.019276813 -0.12929872 0.04408266
-0.038213436 0.0 0.110186346 -0.015247164 -0.13295956 0.0 -0.013584275 0.14802006
0.18018042 -0.010018904 0.0 -0.13256568 0.0 0.0 0.2188274 0.061335836
-0.12655185 -0.011668897 -0.078974254 0.0 0.0 -0.07760782 0.04259313 0.0
-0.014018487 0.0 -0.0071449555 0.0 0.0 -0.07491218 0.2230843 -0.106639646
0.0 0.00019604022 0.0 -0.06984551 0.07074247 -0.02608994 -0.12687637 -0.009970921
0.0 0.12369702 0.0 0.0 0.0 0.24612805 -0.029771231 -0.0023555143

sequential/dense/MatMul f4 [64, 42]
00000000: 896f 673e 4575 74bd 0233 03be 2658 a7be
00000010: e2ec 9bbe 9de6 a2be 5599 8dbe 432e 8abd
00000020: 848d 19bf b5cf 31be ed24 50be 73fd c9be
00000030: 4ebd 04be cb90 bebe 3386 bfbd d1b2 64bd
00000040: b410 823e 1c6f 5c3e 8722 0f3e 083c 4fbe
00000050: 88f7 483e 7b8b 71be 67df 893e ad5d eabd
00000060: 5e9b bc3e 86b3 9f3e 0877 ab3e 0bc3 963d
00000070: 36e2 b73d 2080 4abd c144 2d3e 1600 443d
00000080: 271b a93e 300b d73e a064 8abb f3f9 35be
00000090: 3bbc 923e 5f6d bf3e 0433 5d3e 0d3d 073f
000000a0: 2008 6c3e 23b1 cb3e cab3 fabe 62dd 81bf
000000b0: 9755 3cbe 9154 45bf b580 bc3c 2673 f0be
000000c0: 0e98 ce3e 66d6 04be 86a3 073f 1a6f f5bd
000000d0: 3302 13bf 8efa 443c 6f0a 03be 4de3 313e
000000e0: c2e4 ff3e 8b48 bc3e b132 063f 7e0d af3e
000000f0: f003 e9be 7f00 c73d 08e6 29bd eb05 693e
00000100: dcc9 7e3e 2db6 dd3e 9036 f13e c571 d23e
00000110: 3d96 fdbe da4a 1fbe bc22 dabd 9f23 8c3e
00000120: ec95 ae3e 71e6 ba3e 24df 8f3e 1dff 3f3d
00000130: 17b0 15bf c4ea 99bd 356b 343e 6c35 6ebd
00000140: ec45 fe3e 368d bbbd 45e0 9f3e aa8c a03e
00000150: 0666 67be 3050 543e 1c97 243d 1d5d 2ebe
00000160: 3fde d3bd 0b33 80be ae46 0fbe bfa0 ccbc
00000170: de25 abbd 720e bfbd 21d3 fe3d f2ac 31be
00000180: 6243 c0bd ec45 75be c3aa 183e c1d4 b13d
00000190: 14c1 333e e472 b9bc fee2 76bd c8e1 3cbe
000001a0: d382 dabd 279d dc3c 0a51 783c 2541 d83c
000001b0: 3144 d63d 1a76 9d3d c09e 1b3e 8d7a 833d
000001c0: 4d56 8cbc 93ce 38be bd69 08be 9831 c7bd
000001d0: bcea 693d a1b4 4bbe 2def 153e 5bc0 a9bd
000001e0: 3a33 803d ff3a 0a3e 24db d5bd b60f b5bd
000001f0: e3f9 543e 7e3c c03d 6a33 89be 6899 dbbe
00000200: 1548 b4bd ed2e 03be 978e a4be 8a0a 2abe
00000210: 8560 793d 79a1 afbe 4e38 ff3d 50ac 86be
00000220: c0ae b0be 735f d4be 3fff c4bd 7c15 683d
00000230: dd20 b83e 3748 9f3e 8edb dd3e c8bd a5bb
00000240: ec1d 81bd dad1 b7be 9e58 723d 0b1a a73e
00000250: cdaa 8b3e f2f3 b83e 1852 fc3e 2235 a03d
00000260: 4d78 aebe 00d1 9ebe 8f66 2f3e d8a6 3e3d
00000270: dc5d 123e 4333 b13e d709 da3e 1d49 733e
00000280: 3998 6cbe f851 a5be fefc 3f3e 98da 8e3d
00000290: 08ed cb3e 75b2 633e 54c0 c53e 6799 b03e
000002a0: eb1f a83e f77c 0c3f e748 b13d 5c88 f53d
000002b0: b40f a2be 9f85 b1be 670d 27bf 8486 76be
000002c0: b585 6fbf b886 8bbe cdaf d0bd 828a 14bf
000002d0: c409 253e 4886 92be bb95 67bd 66ea ecbd
000002e0: 81f5 a03d 7933 8dbe 2f5f e13e cc15 55be
000002f0: abb7 893e 75c9 85be e156 3e3d 5adb ee3c
00000300: 1222 f0bd 5e08 7f3e 1640 bf3e 3f98 aebe
00000310: 2a28 c53e 0508 8d3d 5b16 743e 8ed7 ba3e
00000320: c659 9e3e 0c49 f03d 1aa9 9a3e de92 82bd
00000330: 2f84 ac3e 42fe ac3e 8c24 af3d eff2 bb3e
00000340: 55cb 4f3d ca3b b33e 7ca4 463d 1e66 00be
00000350: 65ae 123e b645 2abe 7c6b 70be 4bcc 5d3e
00000360: 27fc 42be 19bc 653e 2c4c 14be fbf5 253e
00000370: 3c64 bcbd f24d a23d d43c 9dbd cd01 5e3e
00000380: 59b4 383e f2ef 6abe 2817 c4bd 12b2 f5bd
00000390: 1d40 f3bd fd8f 673e c58b 65be 2e2e b7bd
000003a0: 36ac a63d 40af e9bd 40b1 5cbd 02b7 eabd
000003b0: 80b4 29bd 9677 01be 34f5 053d a673 6bbe
000003c0: 62de aebd d85e c03c 440c 5d3d 416b 2b3e
000003d0: a8eb eebc 038b 6e3e a800 25be 663b f03d
000003e0: 1c43 0c3d cd94 0c3e eeb7 afbd 7896 0cbe
000003f0: 2ad6 f73d 073f 65be 78b7 52bd a4dd 23be
0.22601141 -0.05968215 -0.12812427 -0.3268444 -0.30454165 -0.3181657 -0.27656046 -0.06747105
-0.5998156 -0.1736439 -0.20326586 -0.3945118 -0.12962839 -0.37219843 -0.09351768 -0.055834595
0.25403368 0.2152676 0.13978015 -0.20237744 0.19625676 -0.23588364 0.26928255 -0.114436485
0.36837286 0.31191653 0.3348925 0.0736142 0.08978693 -0.049438596 0.16920759 0.047851644
0.33028528 0.42000723 -0.004223421 -0.1777113 0.28659233 0.3738813 0.21601492 0.5282753
0.23049974 0.39783582 -0.48965293 -1.0145686 -0.18392025 -0.77082163 0.023010591 -0.4696285
0.40350384 -0.12972412 0.5298389 -0.119840816 -0.5742523 0.0120226275 -0.12796949 0.17371865
0.49979216 0.36774096 0.524211 0.3418998 -0.45510817 0.097168915 -0.04147914 0.22756164
0.2488169 0.43303052 0.4711194 0.41102424 -0.49528685 -0.15555897 -0.10651156 0.27370927
0.34098756 0.36503938 0.2809993 0.046874154 -0.58471817 -0.07515481 0.17619021 -0.058156416
0.4966272 -0.09157793 0.31225792 0.31357318 -0.22597513 0.20733714 0.04018317 -0.17027707
-0.103451245 -0.25038943 -0.13991806 -0.024978993 -0.08356832 -0.09328927 0.124426134 -0.1735113
-0.09387852 -0.23952454 0.1490889 0.08683158 0.17554122 -0.022637792 -0.06027507 -0.18445504
-0.10669484 0.026930405 0.01515604 0.02639825 0.10462225 0.07688542 0.15197277 0.06419859
-0.017130995 -0.18047552 -0.13321586 -0.09726256 0.057108626 -0.19893123 0.1464202 -0.08288642
0.06259771 0.13499068 -0.104421884 -0.08840887 0.20798449 0.09386538 -0.26797038 -0.42890477
-0.08802811 -0.1281087 -0.32140037 -0.16605583 0.060883064 -0.3430288 0.12461911 -0.2630334
-0.34508324 -0.41479072 -0.09618997 0.056661114 0.35962573 0.31109783 0.4333157 -0.005058024
-0.06304535 -0.35902292 0.059166543 0.32637057 0.27278748 0.36123616 0.49281383 0.07822634
-0.34076157 -0.3101883 0.17128967 0.046545833 0.14293617 0.34609422 0.42585632 0.23758359
-0.23104943 -0.322891 0.18748853 0.06975287 0.39829278 0.22236045 0.38623297 0.34492037
0.3283685 0.5487818 0.08656483 0.11988899 -0.31652606 -0.34672257 -0.65254825 -0.24074751
-0.93563396 -0.2725122 -0.10189781 -0.58023846 0.16117007 -0.28618073 -0.05653928 -0.115681455
0.07859326 -0.27578333 0.44017932 -0.20809096 0.2689794 -0.26130262 0.046469573 0.02915733
-0.117252484 0.24905536 0.3735358 -0.3410053 0.38507205 0.06886295 0.23836653 0.3649258
0.30927867 0.117326826 0.3020714 -0.06375669 0.33694598 0.33787733 0.08551893 0.3670878
0.050731022 0.35006553 0.04849671 -0.12538955 0.14324339 -0.16628155 -0.23478502 0.21659963
-0.19041501 0.22435035 -0.14482182 0.16207115 -0.09198806 0.07925023 -0.07677618 0.21680374
0.18037547 -0.22943094 -0.09574729 -0.11996855 -0.11877463 0.22613521 -0.22416599 -0.08944355
0.081383154 -0.114103794 -0.053879976 -0.11460687 -0.041431904 -0.12643275 0.032704547 -0.22993335
-0.0853851 0.023482725 0.053966776 0.16740133 -0.029165104 0.23295216 -0.16113532 0.11730079
0.034243688 0.13728638 -0.08580004 -0.13729274 0.121013954 -0.22387324 -0.0514445 -0.16002518

sequential/dense_1/MatMul f4 [3, 64]
00000000: 3da1 ecbd cbc9 4c3f 4882 6abe d6fb f23e
00000010: ad71 56bf 0a5d 983e e1a3 91be 0836 a43d
00000020: 52ec 69be a8f1 72be e388 3dbd fcd0 f6bd
00000030: 9fa5 f13d 57a5 8ebf 2b5f a0be 7b9e 7fbf
00000040: 0baf adbf 701a cf3d da79 4a3f 959f 903e
00000050: ead3 16bf c82e 983d 1cca 4fbd 09db 8dbf
00000060: b526 a33e 113a 6ebe ca9f 94bd 911d bfbe
00000070: 2f8a 86be 4ae1 8b3e 0289 13bf d288 31bf
00000080: e851 1ebe d381 07be 045d 19bf 1812 82be
00000090: 045d 06be 9c2d 073f 9fcb a23f 4aca ccbd
000000a0: 9f52 413e b243 81be 8b66 c4bc bea8 853e
000000b0: c8b6 3e3e 3b31 2d3f 4b3f 2a3f 4743 23bf
000000c0: e0b2 ff3c 251d 623f e26c 823e 2432 6bbf
000000d0: 8701 3f3f 5f62 8fbf 8a45 683e dac6 72bd
000000e0: 40d1 8ebd 0625 7fbf ee0c 993e 2afb 8fbe
000000f0: 42d1 88bd 0a4d 49bd 7c7d 5cbf 208d 19bf
00000100: e9d9 2abf 2d76 3cbf 1f56 29be 2063 63bf
00000110: a752 17bf 246d 953e 9c29 113e 6476 233e
00000120: a0a0 94bc 4653 94be 72e4 5f3f d0c7 80be
00000130: 5f84 383e 6e80 ac3e c24b 93bf c6db 743f
00000140: 290b aabd 12ba d1bd 9e73 acbe cbc0 913c
00000150: 6b11 16bf fefd 8f3e 7678 f7bc 38f7 473f
00000160: 08e4 183b ae09 2f3e 2bde 5fbe 6fba 4cbf
00000170: 808b e03c 3404 843e c581 0c3f cfc7 403f
00000180: 9765 31bf ab1e 80bd 55c6 843e 0cb9 6e3e
00000190: c095 f4bd 52bb 6dbf de82 61bf 5736 82be
000001a0: bde2 0e3e 5830 213d 1753 8a3e 97c4 1ebe
000001b0: a030 96bc c7be 88bf 251d 133f 9901 f8be
000001c0: 0b47 16be 2028 72bf 208b c3bd f1f8 01be
000001d0: 5ced 38be 1306 073e 5220 b2bf 1263 893c
000001e0: 9058 55bd 90f7 3f3f e080 953e 0062 66bb
000001f0: f4e5 6abe bf7e d53e 0bc4 5d3e 6869 a33e
00000200: acbd 3d3f cb9b 40be e5a4 87be ef58 4c3e
00000210: 5333 4b3f 5dee 72be b3ba 04be d8a7 ca3d
00000220: e014 bdbc c051 683c d914 8cbf e832 8e3d
00000230: d954 2fbe b6ec 7e3f 8ce4 6f3f b744 363f
00000240: 7df3 733f a4cd 4d3e ad5d 53bf 1bc7 b8ba
00000250: b355 333f 643f 943d 5de9 29bb d472 45be
00000260: f86c 3bbf a89e 86be cc82 903d d26e 033f
00000270: fa03 1f3e 6cf1 57bd 17b8 06bf e850 9b3e
00000280: aee0 2a3f 2955 7e3d cfc4 443f a247 c9bd
00000290: 2a59 803e 3ee0 f73e f8a0 6fbf 34df 54bd
000002a0: 9aae 31be e0c4 223e 50d7 893e 4cab afbd
000002b0: 92db e8bd fcd3 033f c38d 0fbf 6581 903f
000002c0: ccf9 713e 9409 e2be f20f 903e 295b 883f
000002d0: af83 f2be b1a4 583f 5892 fa3e 1a6c 30be
000002e0: 7323 81be e8da b2bb 521d dabd a0a6 123d
000002f0: aca1 923e b0fc 2ebf 3184 153f 699d f33e
-0.11554191 0.7999541 -0.22901261 0.4745776 -0.83767205 0.29758483 -0.28445342 0.08018118
-0.22844055 -0.23724997 -0.046273123 -0.12051579 0.11799168 -1.1144208 -0.31322607 -0.99851197
-1.3569044 0.101124644 0.7909218 0.2824675 -0.58917105 0.07430798 -0.050729856 -1.1082469
0.3186547 -0.23264338 -0.0725704 -0.37327245 -0.262773 0.2732032 -0.5763093 -0.69349396
-0.15460932 -0.13233118 -0.59907556 -0.2540443 -0.1312142 0.5280397 1.271839 -0.09999521
0.18879174 -0.2524696 -0.023974678 0.26105303 0.18624413 0.67653245 0.6650283 -0.6377453
0.031213224 0.8832572 0.25473696 -0.91873384 0.74611706 -1.1201895 0.22682777 -0.05927167
-0.06973505 -0.9966587 0.29892677 -0.2812131 -0.06680538 -0.049145736 -0.86128974 -0.59980965
-0.66738755 -0.7361782 -0.16536759 -0.8882313 -0.5911049 0.2918483 0.14176029 0.15963131
-0.018142998 -0.28969783 0.87457955 -0.25152445 0.18019246 0.33691734 -1.1507494 0.9564785
-0.0830291 -0.10240568 -0.3368196 0.017792126 -0.5862033 0.28123468 -0.030208807 0.781116
0.0023329277 0.17093536 -0.21862094 -0.79971975 0.027410269 0.25784457 0.5488551 0.75304884
-0.6929564 -0.062558495 0.25932565 0.23312777 -0.11942625 -0.92863953 -0.8809031 -0.25432083
0.13953681 0.039352745 0.27016518 -0.1550468 -0.018333733 -1.0683221 0.57466346 -0.4843872
-0.14675538 -0.94592476 -0.0954802 -0.1269262 -0.18059295 0.13185911 -1.3916113 0.016770873
-0.052086413 0.74987125 0.29199886 -0.0035153627 -0.22939283 0.41698262 0.21656816 0.31916356
0.7411754 -0.1880943 -0.26492992 0.199558 0.7937519 -0.23723741 -0.12961845 0.09895295
-0.023081243 0.014179647 -1.0943862 0.06943303 -0.1712221 0.9957994 0.9370811 0.711986
0.9529341 0.20097977 -0.8256481 -0.0014097424 0.7005264 0.07238653 -0.002592645 -0.19282085
-0.7321315 -0.2629292 0.070561975 0.51340973 0.1552886 -0.052720472 -0.5262465 0.30335164
0.66749084 0.062092934 0.76862806 -0.09828116 0.25068027 0.4841327 -0.93604994 -0.051970676
-0.17351761 0.15895414 0.26922083 -0.08577594 -0.11370005 0.5149534 -0.56075686 1.1289488
0.23630446 -0.44147933 0.28137165 1.065282 -0.47366092 0.846263 0.48939776 -0.17228737
-0.25222358 -0.0054582246 -0.10650124 0.035803437 0.2863897 -0.6835432 0.58404833 0.47581032
