Solution2_Android_Only/test_mediapipe_tensor/app/src/main/assets/keras_model_1653398839.tflite (tflite, 13512 bytes, 4 tensors)

dense_1/bias f4 [4]
000000 aa 61 37 bd 53 42 c1 bd 74 c1 da bd 82 b4 28 3e
       -0.044770874 -0.094364785 -0.106814295 0.16475108

dense/bias f4 [64]
000000 00 00 00 00 00 00 00 00 47 ac e9 bc 00 00 00 00
       0.0 0.0 -0.028524531 0.0
000010 00 00 00 00 99 be 2e 3e 15 92 d8 bc fd 4f cd bd
       0.0 0.17064895 -0.026436845 -0.10025022
000020 00 00 00 00 45 bc a9 bd 4d 09 36 3e 38 d4 c5 bd
       0.0 -0.08287863 0.17776985 -0.09659618
000030 86 4a 17 3e 44 56 9c 3d 00 00 00 00 00 00 00 00
       0.14774522 0.07633641 0.0 0.0
000040 8e 59 9a bd 2d 6d 1d 3d ea da f6 3d 00 00 00 00
       -0.075366125 0.038434196 0.12053473 0.0
000050 00 00 00 00 00 00 00 00 00 00 00 00 17 5a b0 3e
       0.0 0.0 0.0 0.34443733
000060 ef cf 62 bc 6f e9 8b be 4a a8 26 bc 28 85 16 3e
       -0.013843521 -0.27326533 -0.010171959 0.14699233
000070 00 00 00 00 06 bc 43 be a6 6a b6 bc 00 00 00 00
       0.0 -0.19114694 -0.02226765 0.0
000080 c0 01 99 3e 1d dc 68 be 87 33 b1 3d 00 00 00 00
       0.29884148 -0.22740217 0.08652406 0.0
000090 99 96 7c be 00 00 00 00 00 00 00 00 ba f8 b2 3e
       -0.24666823 0.0 0.0 0.34955388
0000a0 46 b3 97 bc ec 7c 81 3e 50 13 71 3e 47 5e 11 3e
       -0.018518101 0.2529062 0.23542523 0.1419612
0000b0 e5 f0 29 bc 3b b6 92 3d e0 1a 99 3e 00 00 00 00
       -0.010372375 0.07163664 0.29903316 0.0
0000c0 00 00 00 00 5b 06 14 3e e1 a3 2b be 4d 6f a1 3e
       0.0 0.1445555 -0.16761734 0.31530228
0000d0 e4 f8 50 3e 6f 34 2c bc 29 27 4b 3e 41 5d 05 be
       0.20407444 -0.010510548 0.19839157 -0.13023855
0000e0 6a 1c 7c be d2 14 24 be 00 00 00 00 00 00 00 00
       -0.24620214 -0.16023567 0.0 0.0
0000f0 e9 d1 7e bc 02 b6 3a 3e 2a bc 8d bd 2c 13 3d bc
       -0.015552976 0.18233493 -0.06920655 -0.011540215

sequential/dense/MatMul f4 [64, 42]
000000 79 af 0e 3e 33 8d 68 3e f4 68 00 3d ee b1 8e 3d
       0.13934125 0.22710113 0.03135009 0.06967531
000010 d8 d1 22 bd 44 e3 3b be dc 2a 33 be 0e b4 63 be
       -0.039750904 -0.18348414 -0.17496818 -0.22236654
000020 00 37 16 3a d2 df 71 be 00 70 ad b8 54 d1 15 be
       0.00057302415 -0.23620537 -8.2701445e-05 -0.14630634
000030 ec d4 4c bd 1b 5a 6a 3e 55 bf 62 be 8c 1c 77 3d
       -0.050007746 0.22885935 -0.221433 0.06032996
000040 f8 96 c8 bc 60 6c 1a be ee d5 3b be 67 db 08 3e
       -0.02448605 -0.15080404 -0.18343326 0.13364945
000050 c3 54 0b 3e 58 a5 38 bd 00 5a 0d ba 81 b3 36 be
       0.13606553 -0.04507956 -0.0005392134 -0.17841913
000060 72 a1 1f be 33 e9 36 3e a7 5e 1f be 9e 05 84 bd
       -0.1558893 0.17862396 -0.15563451 -0.06446384
000070 a0 0b 29 3c 2b c5 54 3e 4a 30 90 3d 0a 4f eb bd
       0.010317713 0.20778339 0.070404604 -0.11489685
000080 80 f4 c8 3b c0 a7 7d bd 80 e9 c3 bb 0f 4f 03 3e
       0.0061326623 -0.061927557 -0.005978763 0.12823127
000090 14 2a 59 3d 8e bc 5b be 9d 52 50 3e 68 25 c1 3c
       0.053018644 -0.21458647 0.20344014 0.023577407
0000a0 24 67 07 be 83 f4 46 3e f2 d9 b0 3d 3d 9f 36 be
       -0.13222939 0.19429211 0.0863532 -0.17834182
0000b0 74 d1 31 be 14 29 0a be 2c fe 6e bd 0e 90 98 bd
       -0.17365056 -0.13492233 -0.058347866 -0.07449351
0000c0 ee cc cc bd 34 6b 30 bd 18 c5 2c be 86 a3 a5 3d
       -0.10000025 -0.043070987 -0.1687206 0.0808783
0000d0 32 3e c5 bd b8 cd c4 3c 0a 14 e1 3d c3 4d 0a 3e
       -0.096310034 0.024023876 0.1099015 0.13506226
0000e0 e7 b7 50 3e 6c d1 8f bd 74 02 6b bd ee 44 cd 3d
       0.20382653 -0.07022366 -0.057375386 0.10022913
0000f0 41 02 55 3e d5 d1 1b 3e 67 9c 07 3e 3c e0 5e be
       0.20801641 0.15216763 0.13243257 -0.21765226
000100 98 e3 a1 3c 5a 24 4b be 3c be 2e be 2c 75 30 be
       0.019761845 -0.19838086 -0.17064756 -0.17232198
000110 64 cf 64 bd ba c9 bc 3d 42 b2 b7 3d 85 dc 5d 3e
       -0.055861846 0.09218164 0.08969547 0.21666153
000120 41 51 f0 bd 78 e5 df bd b0 54 f7 bc fc 37 2b be
       -0.11734248 -0.109324396 -0.03019175 -0.16720575
000130 78 df b4 3c 9c 13 50 bd 30 4f fb bc a9 d4 55 3e
       0.022079214 -0.05079995 -0.030677408 0.20881905
000140 68 db 9b bd bc 1d 28 3d 7c 6d 4c 3d 36 bd 94 3d
       -0.07610208 0.041043982 0.0499091 0.072626516
000150 db 37 a3 3e 86 df 4b bf 2e 6a ea 3e 39 95 5d be
       0.31878552 -0.79637945 0.45784134 -0.21638955
000160 41 23 ba 3e e9 f0 b5 3e 60 af db 3e 2f 36 09 3e
       0.36355022 0.35535362 0.42907238 0.13399576
000170 10 83 2f 3f b1 41 fc 3e 6d 98 54 3d 28 15 d9 3e
       0.6855936 0.4926887 0.051903177 0.42398953
000180 1c 45 b1 bd d0 31 31 3f 41 95 1f bf 23 19 b0 3e
       -0.0865576 0.6921663 -0.6233712 0.34394178
000190 9e b0 7f bf 96 00 7e 3e 90 6a a7 3e f5 0a 21 3f
       -0.9987887 0.24804911 0.32698488 0.62907344
0001a0 d8 59 2c be 02 b5 a5 3e d1 1b e5 be 9f 63 54 bb
       -0.16831148 0.3236466 -0.44747785 -0.0032408012
0001b0 99 08 9d be 70 94 0d bd 7d 8e c6 3d fc 42 c8 bc
       -0.30670622 -0.03456539 0.09695146 -0.024446003
0001c0 7b 50 60 3d d8 b1 65 3e 0c df b8 bd c3 ce 5b 3e
       0.054764252 0.22431123 -0.09026918 0.21465592
0001d0 f2 cf f2 bd de 02 e4 bd 7d 37 8c be 7b d5 3d 3c
       -0.11856069 -0.111333594 -0.27386084 0.011586542
0001e0 94 94 87 3d d4 d3 e4 bc d9 98 75 be 8d 1f 8e bd
       0.06620136 -0.027933039 -0.23984088 -0.069396116
0001f0 07 67 3c be 79 8c 62 be e4 39 6c be d8 89 66 bd
       -0.18398677 -0.22123899 -0.23068959 -0.0562838
000200 70 b7 0d bd d0 29 3b be 8a 28 1a be ee 35 92 3d
       -0.034598768 -0.18277669 -0.15054527 0.071391925
000210 d1 f2 65 3e a9 90 56 be b4 76 68 3d 89 ff 27 3e
       0.22455908 -0.20953621 0.05675383 0.16406073
000220 3c 69 af bd b7 26 2d be 9a c3 e5 3d 58 07 01 bd
       -0.08564994 -0.169093 0.11218949 -0.031501144
000230 10 51 e0 bd 2c e6 76 bd 77 f2 3f 3e e9 ca 27 3e
       -0.109529614 -0.060278103 0.18744837 0.16385998
000240 6a 33 99 3d 89 c3 23 3e 28 ff a5 3c 5c e6 f3 bd
       0.074805096 0.1599256 0.02026327 -0.11909172
000250 52 06 9a 3d 00 9e ed b9 2d 8b 28 be 17 1b 3b be
       0.07520737 -0.00045321882 -0.16459341 -0.18272053
000260 c4 6e f6 bd b3 1e 05 be c0 45 15 bc 0c d5 60 3d
       -0.120328456 -0.12999992 -0.009110868 0.054890677
000270 f3 dd 5c be 50 ae 3b 3c 00 8a 46 bd e0 05 e1 bc
       -0.21569042 0.011455134 -0.04847145 -0.027468622
000280 18 b0 66 be c0 01 41 be b5 6f 3e 3e 5e 03 d3 3d
       -0.22528112 -0.18848324 0.185973 0.103033766
000290 d1 15 48 3e 9a 90 50 be ec 1a 8b bd 1a 6a ad 3d
       0.19539572 -0.20367661 -0.06792244 0.08467503
0002a0 78 46 4d bd 24 ae 3a 3d c0 d5 05 bc 00 f4 c4 bd
       -0.050116032 0.04557623 -0.008168638 -0.09616852
0002b0 27 42 f8 bd c8 ad 21 be ab f2 55 3e 96 78 ec 3d
       -0.121219926 -0.15788949 0.20893352 0.115464374
0002c0 d8 58 72 be 72 aa d9 3d a7 02 6b 3e 20 29 ea 3b
       -0.23666704 0.10628213 0.2295023 0.0071460158
0002d0 59 34 fa bd 83 63 0d 3e cc 14 1e be 98 aa a0 bc
       -0.12217016 0.13807492 -0.15437621 -0.019612595
0002e0 e4 71 d8 bd 1a 89 97 bd 7d f6 6e 3e 91 1e 65 be
       -0.10568598 -0.07399197 0.23336215 -0.22374941
0002f0 aa 9b 80 3d 30 48 2d be a4 67 2c 3d d5 60 e8 bd
       0.062796906 -0.16922069 0.042091027 -0.11346594
000300 70 a6 e2 bd 06 46 4e be c9 01 34 3e 4e 48 9e 3d
       -0.11066902 -0.201439 0.17578806 0.07728635
000310 65 96 3a be f7 24 44 3e 9e aa 81 bd a4 4b c5 bd
       -0.18221433 0.19154726 -0.06331371 -0.09633568
000320 0c 0e 5c bd c9 32 47 3e 29 9a 57 be 19 a5 58 3e
       -0.053724334 0.19452967 -0.21054901 0.2115673
000330 00 ae 85 39 29 af 28 be 70 4f 2a 3c ac d4 27 3d
       0.00025497377 -0.16473068 0.010394916 0.040974304
000340 2c 9d 49 be 82 97 eb 3d b7 e9 82 be 2a e4 ae 3f
       -0.19688863 0.11503507 -0.25568935 1.366338
000350 a3 da 88 be 38 c6 2b 3f 25 86 f4 be cb b9 e7 3e
       -0.26729307 0.6709933 -0.47758594 0.45258936
000360 62 48 2a bf 4c f3 b4 3e 10 01 40 bf ba 49 b9 bc
       -0.665167 0.3534187 -0.7500162 -0.022618163
000370 ed b5 27 be b6 fd eb bd 2c 93 40 be d3 fa 0b 3e
       -0.16377993 -0.11523001 -0.18806142 0.136699
000380 9a e8 b6 3e 76 51 78 3d 0e 25 e6 3e 3c 65 9c 3e
       0.35724336 0.060624562 0.44950145 0.30545986
000390 fd 95 9a 3c 45 fb 0c 3e 39 54 8e be f6 be 5b be
       0.018870348 0.13767727 -0.27798632 -0.21459565
0003a0 cf 68 c2 3d aa 31 64 3e 1c 6f a4 3e 2e 17 8c 3e
       0.09492647 0.2228457 0.3211602 0.27361435
0003b0 3c d3 6a be 66 84 16 3e 4e c5 e0 3c 59 65 4a 3d
       -0.22932142 0.14698943 0.027437832 0.04941306
0003c0 e8 17 0c bd a2 9b 0d be 4e 1d a0 bd eb 90 28 3e
       -0.034202486 -0.138289 -0.078180894 0.16461532
0003d0 57 19 43 be 72 5e 37 3f 4c cb 1f be ab 36 bf 3e
       -0.19052635 0.7162849 -0.15604895 0.37346396
0003e0 20 bc b4 bd 4c 63 04 3e 1c 82 a4 bd fd 3a 94 3e
       -0.088249445 0.12928504 -0.08032629 0.28951254
0003f0 10 e6 b0 bd 91 41 2c be ce 67 4b be f9 c7 0d 3d
       -0.08637631 -0.16821887 -0.19863817 0.034614537

sequential/dense_1/MatMul f4 [4, 64]
000000 98 10 e8 3d ef c2 81 be c9 91 83 3e 59 76 92 be
       0.1133129 -0.25344035 0.25697163 -0.28605917
000010 6c fa 90 3e 7a ab 98 bf 25 5b 5e be 10 41 93 3f
       0.28316057 -1.192733 -0.21714456 1.150423
000020 3b a8 45 be 93 fd 05 bf 16 3d 70 bf ef 78 f1 be
       -0.19302456 -0.5234005 -0.9384321 -0.47162578
000030 39 14 b4 bf 85 4f d6 bf 08 61 8b bd 50 eb 0b 3d
       -1.4068671 -1.6743017 -0.068056166 0.03415996
000040 f4 af 94 3f bb 99 40 3f d3 89 8f bf 15 e3 26 be
       1.1616197 0.75234574 -1.1213936 -0.16297562
000050 2e b8 1a be 5c d2 94 be 64 94 d8 bd 62 f8 09 bf
       -0.15109321 -0.2906674 -0.10575178 -0.5389463
000060 a2 68 a3 bc 2d 4d 7c 3d 87 c7 2d 3e 38 c7 7a 3f
       -0.019947354 0.061597038 0.16970645 0.97960234
000070 f0 0b b1 bc cf 77 40 be c3 58 0b be 60 07 93 3d
       -0.021612138 -0.18795703 -0.13608079 0.07179141
000080 e3 7f 94 3f 29 5e b6 3d f0 64 d9 be 69 ea 61 be
       1.1601528 0.089046784 -0.42459822 -0.22062077
000090 6a 8f f8 3e 98 fb d2 3d 76 29 92 be bb e5 d6 bf
       0.48546916 0.10301894 -0.28547257 -1.6788858
0000a0 6b ad a5 bf 8c 04 70 3f 6b 1b 3f 3f 8f 4b 82 bf
       -1.2943548 0.9375694 0.7465121 -1.0179309
0000b0 5a 93 a8 bd ff a4 d1 bf 4b 98 f2 bf 30 98 c3 3c
       -0.0823123 -1.6378478 -1.8952726 0.02387628
0000c0 0c 8c 6b 3e 99 16 a7 3f e0 4e 5b 3f e4 93 b8 bf
       0.23002642 1.3053771 0.8566723 -1.4420133
0000d0 3e 97 66 3f f2 f9 58 3e 64 b5 8c 3f a4 60 c5 3f
       0.9007453 0.21189097 1.0992856 1.5420117
0000e0 d6 7e 15 3f fd 82 65 3f 36 22 8b bd b0 1f b4 3c
       0.5839666 0.89653 -0.067936346 0.021987766
0000f0 ec a9 83 bd 2c ac 37 bf 55 d6 cd bf a3 af 89 be
       -0.064288944 -0.7174709 -1.6081034 -0.26891813
000100 68 ce 7e 3d f2 e2 42 be f7 8e 78 3f d0 3a ea 3c
       0.062208563 -0.19031885 0.9709315 0.028592497
000110 00 0e 87 bc ff dc 01 c0 28 a4 32 be 2e 62 83 3f
       -0.016486168 -2.0291135 -0.17445433 1.0264337
000120 20 96 6c 3c 51 3d 89 3f d2 6c 14 c0 ee b3 d3 be
       0.014440089 1.0721837 -2.3191419 -0.41348213
000130 0f 76 fa 3e eb 37 00 3d 12 f9 8a bd c0 cc e1 3b
       0.48918197 0.031303328 -0.06785788 0.006890863
000140 26 a8 32 3f 4f 3c d9 bf 62 39 02 c0 48 da 6d 3d
       0.69787824 -1.697153 -2.0347524 0.058069497
000150 5c d1 ec 3d 80 32 03 be 46 55 e2 bd 1a 01 d1 3e
       0.1156337 -0.12812233 -0.11051421 0.40821153
000160 1d 6f b7 bd 06 e8 9b 3f cc cd 84 3e 0b 6d 17 c0
       -0.0895674 1.2180183 0.2593826 -2.3660305
000170 e8 8a 88 bd 6d 1e b7 3f 2e ab 77 3e 6c 9f 18 be
       -0.06667119 1.430616 0.24186394 -0.14904565
000180 09 01 10 c0 2d 8a 24 3e fe 00 f8 bf b0 ea a8 3c
       -2.2500632 0.16068335 -1.9375303 0.02061972
000190 2f 24 76 3f ee 99 85 be ec 68 30 3e 17 3f 00 3e
       0.9614896 -0.26094002 0.17227525 0.12524067
0001a0 cb bd 4b 3f c2 6d 30 3e 11 60 a2 3d 3c 1c ae bf
       0.79586476 0.1722937 0.079284795 -1.3602366
0001b0 45 70 11 be 8d 7b a9 be 9e 00 0e bd 20 ca 55 3c
       -0.14202984 -0.33102074 -0.034668557 0.013048679
0001c0 e0 d1 1a bd 86 fa 2c c0 f2 46 db 3f e8 56 a2 be
       -0.03779781 -2.7027907 1.7131026 -0.3170693
0001d0 55 83 0e c0 5f ca 69 bd f6 71 fd bf 30 d2 a1 3f
       -2.2267659 -0.05707776 -1.9800403 1.2642269
0001e0 30 ab 0e 3f eb 2d 55 3f 30 b6 2b 3e ec ea d9 3d
       0.5572996 0.8327319 0.16768718 0.10640511
0001f0 63 e8 7e 3e 16 0c 0e c0 01 c2 81 3f db 01 f6 3d
       0.24893336 -2.2194877 1.013733 0.12012073
000200 22 b3 7d be 48 43 40 3d 73 9d af bf 78 57 8f 3e
       -0.24775365 0.046939164 -1.3719925 0.2799642
000210 04 48 32 3e d3 6a 42 3f 2b 95 e3 bd 9a b7 97 bf
       0.17410284 0.7594425 -0.11112436 -1.1852906
000220 ce ab 1d be 4a 2d 7a bf 6d 51 8b 3f 45 5f 89 3f
       -0.1539757 -0.97725356 1.0884224 1.0732199
000230 f4 d3 e9 be 5c 7f 9e 3f 80 67 2d bd 91 b6 92 be
       -0.4566952 1.2382617 -0.042335033 -0.28654912
000240 c8 6e 7f bf 64 04 56 3f 16 97 ba 3f 30 44 ae 3c
       -0.99778414 0.8360045 1.4577358 0.021272749
000250 80 e1 14 bc a0 8d 24 3d 88 0f 70 3e e2 04 be bf
       -0.0090869665 0.040174127 0.23443425 -1.484524
000260 71 2c b2 3c 52 fc c3 3f 8f 2c c7 bd b2 ab 77 3f
       0.021749707 1.5311377 -0.09725296 0.9674636
000270 44 ec 41 3e 31 f7 a6 3f 9b 02 5f be e1 e8 1f be
       0.18937784 1.3044187 -0.21778338 -0.1561618
000280 97 dc 73 bf 3e db 7d 3f 8b 81 a0 3f d0 63 7c 3d
       -0.9525847 0.9916266 1.2539533 0.061618626
000290 7e 86 9b 3f 18 d2 97 3d ac 3d e6 3d b6 04 a9 bf
       1.2150419 0.07413119 0.11242232 -1.3204563
0002a0 cc f5 50 bf 28 bc ad bf 59 03 95 bf 49 6d 90 3f
       -0.81625056 -1.3573046 -1.1641647 1.1283351
0002b0 e8 ab f6 3d 03 e8 bb 3f 63 63 52 bf e8 c5 53 be
       0.12044507 1.4680179 -0.821829 -0.20680964
0002c0 07 4e 1f be 9b d4 1c 3f 09 dc c9 be 51 f2 c4 bf
       -0.15557109 0.6126191 -0.39425686 -1.5386449
0002d0 6b cd 9b 3e 33 4b 03 be b0 51 91 bd 0c 3d a5 bf
       0.3043016 -0.12821655 -0.07095659 -1.2909255
0002e0 27 20 2d 3f a5 ec be be 80 cf 5d 3d 54 1b dc bd
       0.67627186 -0.3728992 0.054152966 -0.107474
0002f0 d2 e9 3a be 00 47 93 3f c3 f7 c7 3e 5e f3 c6 3d
       -0.18253258 1.1506042 0.39056215 0.09714387
000300 80 91 0d 3e e2 d7 4c be 4f d7 14 bf d8 0f 8f be
       0.13825035 -0.20004228 -0.58141035 -0.27941775
000310 d4 64 76 3e 90 5c b2 3f d2 92 36 3e d8 45 64 bf
       0.240619 1.3934498 0.17829445 -0.89169073
000320 80 e4 a7 3b 8d 0e 3b bf 43 d3 13 40 6c 58 24 3c
       0.005123675 -0.7306908 2.3097694 0.010030847
000330 b9 87 32 3e 44 0a 58 3e f4 f8 84 3e 80 54 b7 3b
       0.17434587 0.21097666 0.25971186 0.00559479
000340 10 94 10 bf ab 42 06 3f 01 a9 04 40 78 db 35 3e
       -0.56475925 0.5244548 2.0728152 0.17759502
000350 56 35 24 3e 74 7c 36 be 63 e1 92 be bf cd 37 3f
       0.16035971 -0.17820913 -0.2868758 0.7179832
000360 c9 25 74 be f6 8c f1 bf 57 52 96 3d 29 22 ea 3f
       -0.23842539 -1.8871143 0.07339924 1.8291675
000370 9c 6d 92 3d f6 7a 0d c0 0b a1 f4 bd ee 88 8b be
       0.071498126 -2.21063 -0.11944779 -0.27252907
000380 ba f2 e6 3f b1 8d 91 bf db 54 e6 3f 87 0a 03 be
       1.8042824 -1.1371366 1.7994646 -0.12796985
000390 ae 42 f2 bf 2a 0f 90 bd e6 ea 8e 3e 65 7f 16 3f
       -1.8926599 -0.07034142 0.27913588 0.5878814
0003a0 bd 72 e3 be 36 0f f1 3e 03 b0 74 3e f4 6d b0 3f
       -0.44423476 0.47081918 0.23895268 1.3783555
0003b0 41 04 ea bd 5f bd cc 3e cd c9 50 3f 23 06 8b be
       -0.114265926 0.3998823 0.81557924 -0.2715312
0003c0 44 61 04 3e 09 c7 c3 3f ef a0 b9 bf cb bd 42 3f
       0.12927729 1.5295116 -1.4502238 0.7607085
0003d0 b3 7c bf 3f a0 29 88 be c4 ce 03 40 26 36 d3 bf
       1.495993 -0.26594257 2.059495 -1.65009
0003e0 d6 3e c8 bf 8f 55 7a bf 1c 73 8d bd 38 d3 77 3e
       -1.5644176 -0.977868 -0.06906721 0.24201667
0003f0 1c 73 aa 3d 02 90 06 40 81 16 cf be 0f 0b 79 be
       0.083227366 2.1025395 -0.40446857 -0.24320625
