Solution2_Android_Only/test_mediapipe_tensor/app/src/main/assets/keras_model_1652596547.tflite (tflite, 13252 bytes, 4 tensors)

dense_1/bias f4 [3]
-0.018006472 0.044378854 -0.056654528
00000000: 4f82 93bc 9ac6 353d 940e 68bd

dense/bias f4 [64]
0.18890901 0.09219216 0.0 -0.06278863 0.20802437 0.0 0.0 0.084777206
0.0 0.054473143 0.14580272 0.0 -0.06404806 0.0 0.0 -0.07565788
0.0 0.0 -0.06806938 0.0 0.0 0.0 0.0 -0.02520022
0.026551092 0.0 -0.008378701 0.0 -0.006003203 0.09982517 0.20427969 0.0
0.19191667 0.0 0.0 0.0 -0.048362758 0.14663899 -0.061921805 0.14471088
0.0 0.0 -0.009685345 0.15809156 -0.0074706986 -0.06680406 -0.057057768 0.055106357
0.09028077 0.1905772 0.015279991 -0.04427828 0.0 0.11982901 0.0 -0.066697314
-0.06149619 -0.009396743 -0.080730885 -0.008024348 0.0 0.06880856 0.0 -0.11830493
00000000: 5d71 413e 3ecf bc3d 0000 0000 5397 80bd
00000010: 5704 553e 0000 0000 0000 0000 ac9f ad3d
00000020: 0000 0000 3b1f 5f3d 4f4d 153e 0000 0000
00000030: a12b 83bd 0000 0000 0000 0000 85f2 9abd
00000040: 0000 0000 0000 0000 f667 8bbd 0000 0000
00000050: 0000 0000 0000 0000 0000 0000 b170 cebc
00000060: ad81 d93c 0000 0000 d246 09bc 0000 0000
00000070: 84b6 c4bb 2471 cc3d b22e 513e 0000 0000
00000080: ce85 443e 0000 0000 0000 0000 0000 0000
00000090: 0718 46bd 8828 163e b8a1 7dbd 172f 143e
000000a0: 0000 0000 0000 0000 48af 1ebc c1e2 213e
000000b0: c3cc f4bb 91d0 88bd 68b5 69bd 34b7 613d
000000c0: 20e5 b83d ab26 433e ed58 7a3c 245d 35bd
000000d0: 0000 0000 e968 f53d 0000 0000 9a98 88bd
000000e0: 6ee3 7bbd ccf4 19bc 3c56 a5bd 8e78 03bc
000000f0: 0000 0000 81eb 8c3d 0000 0000 db49 f2bd

sequential/dense/MatMul f4 [64, 42]
-0.10696182 -0.5918273 -0.0049561765 -0.17077547 0.5635309 0.01665249 0.6179538 0.5653233
0.87447745 0.46073005 0.21621183 0.48679137 0.038132764 0.4449052 0.09433155 0.4116854
0.31167164 -0.033328794 -0.17570393 0.5901918 -0.27742296 0.19016132 -0.23219247 0.12510057
0.2120642 0.07919701 -0.47199345 0.20057845 -0.43511486 -0.014110707 -0.02294177 -0.09637631
-0.089438334 -0.47766745 -0.19934447 -0.22149777 -0.30131215 -0.42753026 -0.19546765 -0.35838518
0.14868419 -0.4001908 -0.5082034 -0.75691867 -0.07450054 -0.19541016 0.39743274 0.03569164
0.663676 0.38793433 0.78290135 0.18547376 -0.22941728 0.20054574 0.25992715 0.15376982
0.056718584 0.27910164 0.018582294 0.12985305 -0.2428128 0.27139443 -0.033982396 0.2099539
0.08779852 -0.048039656 0.18944924 -0.06326928 -0.31821635 0.20361526 -0.18141563 0.0872853
0.16071272 -0.15206352 0.005697529 -0.0018763418 -0.29710916 0.15970452 -0.21354538 -0.15331195
0.10568167 0.016904166 -0.0028238606 -0.43611363 -0.14860675 0.22704135 -0.15309352 -0.17662746
0.08628796 0.06050001 -0.052889526 -0.111064374 -0.1313196 -0.14824706 -0.19541995 0.031547204
-0.14249498 0.015610114 -0.06077057 -0.1939984 0.10451527 0.22608988 0.049934223 0.020491138
0.154016 -0.18763074 -0.14825217 0.15926458 0.020403162 -0.16772296 -0.14062746 -0.12069569
-0.21197379 0.1280518 -0.024574593 0.09034483 -0.004453242 0.22082521 -0.10827297 0.09048875
0.1404865 0.10601638 -0.0763963 0.027048364 0.20804988 -0.1779713 0.4185851 0.26369154
0.1637209 -0.19545221 -0.098805696 -0.1898681 -0.34049675 -0.06997887 -0.3717129 -0.112200856
-0.12121841 -0.1567386 0.025911724 -0.0065189567 -0.2072945 -0.13161483 0.08994737 -0.08043582
-0.005830666 0.022862818 0.15787339 -0.25155652 -0.06624889 -0.078894466 -0.09060796 0.046214275
0.36163878 0.118212916 -0.048449636 0.2538155 -0.03552193 0.280975 0.049346395 0.051318757
0.35880047 0.035721622 0.2516686 0.24549878 0.06434873 0.40432683 0.17881797 0.10927045
0.20441483 0.054233164 0.03415585 0.30808783 0.4284541 0.49695227 0.4589539 0.4635264
0.81637496 0.5090696 0.35788327 0.19119406 -0.03824874 0.27763525 -0.033944037 0.3165863
0.071322165 -0.20472017 -0.15404014 0.39825353 0.117143184 0.17866325 -0.26069152 -0.103894785
-0.18764351 -0.09052213 -0.24812432 0.38228354 -0.06637423 -0.09713398 -0.1758086 -0.16416883
-0.36745828 -0.31295347 -0.14786208 0.2020316 -0.12475488 -0.22946875 -0.15028751 -0.1786097
-0.30756846 -0.3287226 -0.13775845 -0.103311196 0.023123488 -0.07479517 -0.20358734 -0.19586506
-0.029585198 -0.011869267 -0.10832548 -0.18388432 0.11369623 -0.0171213 0.016551629 -0.004431978
0.012254015 0.17168544 -0.22883587 -0.16353847 -0.1667501 -0.18628815 -0.119022965 0.22760625
-0.08691998 -0.22914563 0.19511263 0.02536644 -0.226609 -0.21194032 0.14376216 -0.21152924
0.031767085 0.00521107 -0.15375656 0.19950648 0.07600184 -0.2046475 -0.19312844 0.108713254
0.07991935 -0.046043172 -0.15537387 0.11068614 -0.083009526 -0.1692212 -0.19940631 -0.12305714
00000000: cc0e dbbd fe81 17bf 6c67 a2bb c4df 2ebe
00000010: 9043 103f cd6a 883c 3832 1e3f 07b9 103f
00000020: c1dd 5f3f cfe4 eb3e a266 5d3e b83c f93e
00000030: 1a31 1c3d 9dca e33e e630 c13d 6ec8 d23e
00000040: 6d93 9f3e c683 08bd bbeb 33be cf16 173f
00000050: 620a 8ebe a6b9 423e ddc3 6dbe 5d1a 003e
00000060: 5c27 593e 0b32 a23d 20a9 f1be 7064 4d3e
00000070: 60c7 debe 9830 67bc 61f0 bbbc f160 c5bd
00000080: 722b b7bd d490 f4be f520 4cbe 50d0 62be
00000090: 9645 9abe 3fe5 dabe ac28 48be 437e b7be
000000a0: ab40 183e cfe5 ccbe 9e19 02bf 6cc5 41bf
000000b0: bd93 98bd 9a19 48be 4e7c cb3e 6631 123d
000000c0: ace6 293f 549f c63e 396c 483f d5ec 3d3e
000000d0: 5dec 6abe dd5b 4d3e 2c15 853e d675 1d3e
000000e0: bf51 683d 69e6 8e3e e539 983c 33f8 043e
000000f0: eba3 78be 36f4 8a3e 2031 0bbd 28fe 563e
00000100: b6cf b33d 3bc5 44bd fbfe 413e 5393 81bd
00000110: 41ed a2be 8580 503e 05c5 39be a3c2 b23d
00000120: e091 243e 8ab6 1bbe 56b2 ba3b 95ef f5ba
00000130: b11e 98be 9589 233e a4ab 5abe cffd 1cbe
00000140: a26f d83d 9b7a 8a3c 8510 39bb 494a dfbe
00000150: 5e2c 18be 877d 683e 8cc4 1cbe d4dd 34be
00000160: beb7 b03d dcce 773d b0a2 58bd b875 e3bd
00000170: a578 06be 14ce 17be 2b1c 48be a437 013d
00000180: 34ea 11be 90c1 7f3c 90ea 78bd 84a7 46be
00000190: 1a0c d63d 1b84 673e d487 4c3d 08dd a73c
000001a0: 5fb6 1d3e 4622 40be 6bcf 17be 4116 233e
000001b0: 8824 a73c 91bf 2bbe a500 10be 4d2f f7bd
000001c0: a80f 59be 0320 033e a850 c9bc b606 b93d
000001d0: 80ec 91bb 0120 623e 38be ddbd 2a52 b93d
000001e0: b1db 0f3e 1e1f d93d aa75 9cbd 8894 dd3c
000001f0: 070b 553e 1c3e 36be c950 d63e 9402 873e
00000200: 74a6 273e a024 48be a45a cabd c96c 42be
00000210: 9755 aebe 1551 8fbd 2751 bebe 90c9 e5bd
00000220: 5c41 f8bd 1580 20be d344 d43c f99c d5bb
00000230: 0245 54be 0ac6 06be 5436 b83d 89bb a4bd
00000240: 2c0f bfbb ce4a bb3c 90a9 213e 04cc 80be
00000250: 7fad 87bd 6c93 a1bd ab90 b9bd 2e4b 3d3d
00000260: b828 b93e 9d19 f23d 2073 46bd 1bf4 813e
00000270: 717f 11bd f5db 8f3e 721f 4a3d 9e33 523d
00000280: b2b4 b73e d650 123d b5da 803e 0864 7b3e
00000290: 44c9 833d ed03 cf3e 0f1c 373e 30c9 df3d
000002a0: 1f52 513e 9823 5e3d 01e7 0b3d b0bd 9d3e
000002b0: 565e db3e 8770 fe3e 01fc ea3e 5553 ed3e
000002c0: f3fd 503f 6352 023f 7a3c b73e 60c8 433e
000002d0: b6aa 1cbd 3526 8e3e e708 0bbd 9917 a23e
000002e0: 5b11 923d 2aa2 51be b3bc 1dbe e3e7 cb3e
000002f0: c4e8 ef3d 80f3 363e 5c79 85be cac6 d4bd
00000300: 9f25 40be ab63 b9bd 4d14 7ebe abba c33e
00000310: 36ef 87bd 2eee c6bd 2b07 34be e01b 28be
00000320: 7e23 bcbe 703b a0be 2869 17be 5fe1 4e3e
00000330: 7d7f ffbd dbf9 6abe f8e4 19be 76e5 36be
00000340: 9d79 9dbe 544e a8be 8d10 0dbe d294 d3bd
00000350: 786d bd3c 362e 99bd 3379 50be da90 48be
00000360: a85c f2bc 5077 42bc c0d9 ddbd 2c4c 3cbe
00000370: 92d9 e83d f841 8cbc 4897 873c 203a 91bb
00000380: 10c5 483c 4fce 2f3e f353 6abe a176 27be
00000390: 8ac0 2abe 52c2 3ebe 50c2 f3bd 9d11 693e
000003a0: 1a03 b2bd 27a5 6abe 9bcb 473e 48cd cf3c
000003b0: 310c 68be e206 59be 6336 133e 1f9b 58be
000003c0: 341e 023d a0c1 aa3b 5c72 1dbe 6d4b 4c3e
000003d0: daa6 9b3d 1d8f 51be 76c3 45be 0ea5 de3d
000003e0: c2ac a33d c497 3cbd 541a 1fbe 6aaf e23d
000003f0: e600 aabd 5248 2dbe 2b31 4cbe 6205 fcbd

sequential/dense_1/MatMul f4 [3, 64]
0.9440911 1.0780454 0.013776839 -0.5415903 -0.104076885 -0.1505863 -0.09855798 0.9154163
-0.28200164 0.9829211 -0.4755951 0.10072109 0.39298666 -0.10406764 -0.23621121 0.059408512
-0.1791153 0.028877527 -0.3801914 -0.22551766 0.2962268 0.19766378 -0.26125318 0.24254996
0.6470044 -0.25693142 -0.07448224 -0.04225886 -0.19740988 0.43983206 0.6467444 -0.028006226
0.70733607 -0.045389384 0.09948492 -0.16849987 -0.6519771 -0.5714633 0.41158834 -0.88170564
-0.02635032 0.14988989 0.77293575 -0.8603684 -1.1719366 -1.1223586 -0.99295026 -1.339021
0.3722536 0.14357597 -1.079099 0.7811846 0.2794863 0.52345675 0.18180215 -0.20932515
0.3133638 -1.8175449 -0.19564828 0.12911421 0.09790316 -0.3387563 0.27779233 -0.21323673
0.62921727 -0.0058792485 -0.073393315 -0.31416705 0.3704064 -0.054458857 0.01356557 -0.8975885
0.15310922 -1.1305821 0.87703764 -0.10877094 -0.5578793 -0.20253737 0.13359484 -0.9461766
0.077301234 0.022061765 -0.51181674 0.096188754 -0.06352468 0.13851982 0.05055636 -0.20705263
-0.41735122 0.027587771 0.062041547 -0.16965298 -0.27431098 0.2830167 0.65875626 0.197465
0.67834836 -0.17837563 0.054631025 0.0860928 0.057008304 0.6817212 -0.194575 1.0100197
-0.23368824 0.19535646 -0.79009354 0.8349321 0.44138432 -0.30002353 -0.10481379 0.766044
0.5839473 0.65715224 0.6778018 -0.9004373 0.103073984 0.4096845 0.24134785 -0.8582736
-0.5574981 0.8830176 -0.8800053 -0.2942386 0.14081755 0.62438744 0.016756386 -0.63883626
-0.9272336 -1.0045792 -0.1873602 0.46322754 -0.7299193 0.26669765 -0.12823224 -1.1622806
-0.051028967 -0.8990155 -0.80463165 0.014930725 0.28042048 -0.108649224 0.26781112 0.45115054
-0.19325243 -0.16136034 0.5011113 -0.28678226 -0.26281968 0.09435633 -0.16948147 0.17539343
-0.634231 0.27281737 -0.20165792 0.08983654 -0.2119935 -0.59486324 -1.194317 -0.28381422
-0.9698484 -0.115171805 -0.048719794 -0.16174391 0.73272574 -0.67518455 0.26561278 -0.19856168
-0.10724974 0.29691184 0.14510033 -0.6780918 0.93568546 1.0426081 0.8792295 0.57893276
-0.66859144 -0.77900577 0.97257555 0.11109492 -0.07127616 -0.77293116 -0.27878246 0.8615572
0.29699913 0.71390074 0.47275212 0.049154148 -0.20994766 -0.3162613 0.27441072 0.69067186
00000000: f4af 713f 64fd 893f 40b8 613c a9a5 0abf
00000010: 4326 d5bd 4c33 1abe c4d8 c9bd b958 6a3f
00000020: 8562 90be b8a0 7b3f 3381 f3be dc46 ce3d
00000030: 8c35 c93e 6a21 d5bd 5ae1 71be 5756 733d
00000040: 006a 37be 9090 ec3c 72a8 c2be 1aee 66be
00000050: 0aab 973e 6068 4a3e fac2 85be 045f 783e
00000060: 15a2 253f 848c 83be 258a 98bd a017 2dbd
00000070: d125 4abe ab31 e13e 0a91 253f 506d e5bc
00000080: fa13 353f 38ea 39bd c0be cb3d 3b8b 2cbe
00000090: f9e7 26bf 6b4b 12bf b5bb d23e 76b7 61bf
000000a0: a0dc d7bc bc7c 193e 1edf 453f 1a41 5cbf
000000b0: 0502 96bf 72a9 8fbf fd31 7ebf 0a65 abbf
000000c0: 0698 be3e 9405 133e eb1f 8abf b7fb 473f
000000d0: d418 8f3e 4301 063f 582a 3a3e 5559 56be
000000e0: 3871 a03e 50a5 e8bf 0658 48be 8436 043e
000000f0: 7481 c83d 7771 adbe cc3a 8e3e bb5a 5abe
00000100: 6214 213f b6a6 c0bb 3c4f 96bd 81da a0be
00000110: e8a5 bd3e 4010 5fbd 2042 5e3c 5cc8 65bf
00000120: aac8 1c3e eab6 90bf 8a85 603f 4cc3 debd
00000130: 2ed1 0ebf f565 4fbe 16cd 083e a138 72bf
00000140: 1c50 9e3d e0ba b43c 6c06 03bf 9cfe c43d
00000150: 3a19 82bd 24d8 0d3e 3014 4f3d 9b05 54be
00000160: 0faf d5be c0ff e13c 471f 7e3d 83b9 2dbe
00000170: 7d72 8cbe 91e7 903e 40a4 283f 4434 4a3e
00000180: 3da8 2d3f 1aa8 36be c8c4 5f3d 6c51 b03d
00000190: 8a81 693d 4885 2e3f ab3e 47be 5348 813f
000001a0: f84b 6fbe 860b 483e 9243 4abf 1cbe 553f
000001b0: 20fd e13e af9c 99be 9da8 d6bd 761b 443f
000001c0: 927d 153f 213b 283f 6b84 2d3f 0f83 66bf
000001d0: 7418 d33d 2bc2 d13e e423 773e d2b7 5bbf
000001e0: 32b8 0ebf 710d 623f 0748 61bf 71a6 96be
000001f0: 7a32 103e dbd7 1f3f b044 893c c68a 23bf
00000200: 2e5f 6dbf 0d96 80bf 5adb 3fbe 292c ed3e
00000210: fedb 3abf 988c 883e 504f 03be 9cc5 94bf
00000220: c003 51bd e125 66bf 57fc 4dbf 00a0 743c
00000230: 4693 8f3e 7c83 debd 8a1e 893e 34fd e63e
00000240: f7e3 45be a53b 25be d548 003f 20d5 92be
00000250: 4d90 86be e43d c13d 8d8c 2dbe 569a 333e
00000260: f65c 22bf b8ae 8b3e 6a7f 4ebe 38fc b73d
00000270: d314 59be f548 18bf 61df 98bf 1950 91be
00000280: fc47 78bf 32df ebbd 688e 47bd 32a0 25be
00000290: ea93 3b3f e5d8 2cbf 66fe 873e c153 4bbe
000002a0: c0a5 dbbd d404 983e 2e95 143e 6d97 2dbf
000002b0: 1589 6f3f 2f74 853f 2f15 613f f034 143f
000002c0: cf28 2bbf ec6c 47bf b6fa 783f bc85 e33d
000002d0: 3cf9 91bd d1de 45bf 93bc 8ebe 038f 5c3f
000002e0: 4510 983e 33c2 363f 910c f23e dc55 493d
000002f0: 85fc 56be 00ed a1be 907f 8c3e dfcf 303f
