Solution2_Android_Only/test_big/hands/src/main/assets/keras_model.tflite (tflite, 7640 bytes, 4 tensors)

dense_1/bias f4 [8]
0	0xbca1cb91	-0.019750388
1	0xbce7e146	-0.028305661
2	0x3cca6f46	0.024711262
3	0xbcb61a7a	-0.022229422
4	0x3d1add13	0.03780849
5	0x3c28ba46	0.010298317
6	0xbb1b1a93	-0.0023666963
7	0x3cf29007	0.029609693

dense/bias f4 [64]
0	0x3cd3f233	0.025872326
1	0xbc573442	-0.013135018
2	0x3d2229f3	0.039590787
3	0xbcb1637f	-0.021653889
4	0xb8733e13	-5.7993526e-05
5	0x3ce86550	0.028368622
6	0x00000000	0.0
7	0x3d2ec4b3	0.042668056
8	0xbbcf2237	-0.0063212174
9	0xbcc7e263	-0.024399942
10	0x3caef1c3	0.021355515
11	0xbbca0f28	-0.0061663575
12	0xbd124be9	-0.035716925
13	0xbd0cfacc	-0.034418866
14	0xbc9847bd	-0.018588895
15	0x3d208856	0.03919252
16	0xb82eb68e	-4.165485e-05
17	0x3d0b0948	0.0339444
18	0x00000000	0.0
19	0x3c66371c	0.014051225
20	0xbc51e4fb	-0.012810941
21	0xbbf5ec89	-0.007505004
22	0x3d67c552	0.056584664
23	0x3d0b36aa	0.03398768
24	0xbc4d9018	-0.012546562
25	0xbd210918	-0.039315313
26	0x3c7caaba	0.015421564
27	0x3d2c52f0	0.042071283
28	0x3cf13a60	0.02944678
29	0xb9c5cdc3	-0.00037728072
30	0x3be10b17	0.006867777
31	0xbb9b1494	-0.0047326777
32	0xbd034401	-0.032047275
33	0x00000000	0.0
34	0x3cf822ee	0.030290093
35	0xbcaf4230	-0.021393865
36	0xbd101d89	-0.035184417
37	0x3d162fc3	0.036666643
38	0xbcebcf9b	-0.028785517
39	0x3d12414a	0.035706796
40	0x3d16ca39	0.03681395
41	0xbcad0587	-0.0211208
42	0x00000000	0.0
43	0x00000000	0.0
44	0xbcb69474	-0.022287585
45	0x3cb98b7f	0.022649525
46	0x3b8ff6ec	0.004393449
47	0x00000000	0.0
48	0xbc8b809b	-0.017029097
49	0x00000000	0.0
50	0x3d098405	0.03357317
51	0xbcb786ba	-0.02240311
52	0xbc26cd68	-0.010180809
53	0x3b3fe639	0.002928151
54	0xbce813ae	-0.028329697
55	0x3a49ad93	0.0007693406
56	0xbcd24c38	-0.02567111
57	0x3c9664f1	0.01835868
58	0x3cd41d1e	0.02589279
59	0x3ce77961	0.02825612
60	0xbce65d76	-0.028120738
61	0xbcb46092	-0.022018705
62	0xbd0e7e13	-0.034788202
63	0x3d01867f	0.031622406

sequential/dense/MatMul f4 [64, 15]
0	0xbd664086	-0.056213878
1	0xbb2f7aaa	-0.0026775994
2	0x3dc2db2d	0.09514461
3	0x3e43fe13	0.1913989
4	0xbdf2e6ee	-0.118604526
5	0xbd94c474	-0.07264033
6	0x3dfca324	0.12335804
7	0xbd303286	-0.043016933
8	0xbd89ff9d	-0.067382075
9	0xbd72ae42	-0.059248216
10	0x3d580511	0.052739207
11	0x3d3f1b1b	0.04665671
12	0x3e4b464a	0.19851032
13	0x3d5848d5	0.052803833
14	0xbe65732f	-0.2240722
15	0xbe0e8350	-0.13917279
16	0x3e0b7b9b	0.1362137
17	0x3d8136c6	0.06309275
18	0x3e5a3b70	0.21311736
19	0x3d607a8f	0.05480438
20	0xbd29c8f0	-0.041451395
21	0xbe5b30f1	-0.21405388
22	0xbd8040e5	-0.06262378
23	0x3d592d5b	0.05302177
24	0xbcb0691f	-0.0215345
25	0xbd76825d	-0.060182918
26	0x3e81b627	0.25334284
27	0x3d91858d	0.07105551
28	0x3e6507ce	0.22366259
29	0x3d9ea3b4	0.07746068
30	0x3e967d42	0.2939244
31	0xbd38071a	-0.044928648
32	0x3e4fbbc5	0.20286472
33	0x3e122b82	0.1427441
34	0xbdca4a3a	-0.09877439
35	0x3e2af358	0.16694391
36	0x3cc8ef3b	0.024528136
37	0xbc2a4b28	-0.010393895
38	0xbe6dacf9	-0.23210515
39	0xbe2a558b	-0.16634195
40	0xbd89cdde	-0.06728719
41	0xbe0bd2d4	-0.13654643
42	0xbe71c3de	-0.23609874
43	0x3c35f0e0	0.011104792
44	0x3d6441df	0.055726882
45	0xbe56874e	-0.20950052
46	0x3da2d0ff	0.07950019
47	0x3e6df9e9	0.23239864
48	0xbe128869	-0.14309849
49	0xbe09f5aa	-0.1347262
50	0xbd012a3e	-0.031534426
51	0x3e20e9ab	0.15714137
52	0x3d93f24e	0.0722395
53	0x3d86add5	0.065761246
54	0xbd8e78c1	-0.06956626
55	0xbe49c313	-0.19703321
56	0xbe8a0eb5	-0.26964346
57	0xbce1705b	-0.027519396
58	0xbdb1d596	-0.086833164
59	0x3d70fd51	0.05883533
60	0xbe21ba04	-0.15793616
61	0x3e39fe04	0.18163306
62	0xbe438342	-0.1909304
63	0x3e49a28b	0.19690911
64	0xbe5e35b9	-0.21700181
65	0x3e1019f4	0.140724
66	0x3d607a2b	0.05480401
67	0xbdd197eb	-0.10234054
68	0xbd73626f	-0.059420045
69	0x3da084f4	0.07837859
70	0x3e14031b	0.1445431
71	0xbe83b1a4	-0.25721467
72	0x3dbb5fca	0.0914913
73	0x3dd596ad	0.1042913
74	0x3e5ed038	0.21759117
75	0x3d2115d3	0.039327454
76	0xbdddf715	-0.10838143
77	0xbe06b970	-0.13156676
78	0xbd8b03a5	-0.067878045
79	0x3e61a800	0.22036743
80	0x3cbeded7	0.023299618
81	0x3e48aa92	0.19596317
82	0x3e4d3250	0.20038724
83	0xbd8a8cae	-0.06765114
84	0xbe1f5695	-0.15560372
85	0x3e485a9c	0.19565815
86	0x3de29568	0.11063653
87	0xbdc28ed5	-0.09499899
88	0xbe126c7d	-0.14299197
89	0xbdfa79a6	-0.12230234
90	0xbd8f1fc8	-0.06988484
91	0xbe317929	-0.17331375
92	0xbe897b60	-0.2685194
93	0xbde33316	-0.11093728
94	0x3cb22ba0	0.021749318
95	0x3d96cb5c	0.073630065
96	0xbdc7754c	-0.097391695
97	0xbd2dddd8	-0.042447895
98	0x3dc4ba30	0.09605825
99	0xbe86ecf3	-0.26352653
100	0xbe4a65b4	-0.19765359
101	0x3de36ea8	0.111050904
102	0xbdd23d52	-0.10265602
103	0x3e8a68ad	0.27032986
104	0xbe8a011b	-0.26953968
105	0x3e597edc	0.212398
106	0x3dee3101	0.116304405
107	0x3e2215a3	0.15828566
108	0xbe681adf	-0.226665
109	0xbe373109	-0.17889799
110	0xbe6c68eb	-0.23086898
111	0x3de2240e	0.11042033
112	0xbe0e1f23	-0.13879065
113	0xbc527f53	-0.012847739
114	0xbcb9222e	-0.022599306
115	0x3e14b288	0.1452123
116	0xbdbbadee	-0.09164034
117	0x3e864074	0.2622105
118	0xbde1c2ed	-0.11023507
119	0x3e4e88a1	0.20169307
120	0xbe6830d9	-0.22674884
121	0xbe3cc3d8	-0.18434083
122	0xbe253361	-0.16132881
123	0xbd5cd88c	-0.053917453
124	0x3e4bca5e	0.19901416
125	0x3e323af5	0.17405303
126	0x3dcde611	0.10053647
127	0x3e354a31	0.17704083
128	0xbe913fcf	-0.28368995
129	0x3d56df0c	0.052458808
130	0xbe8e402e	-0.2778334
131	0x3e60f15c	0.21967071
132	0x3de925cf	0.113841645
133	0xbd8c2c3e	-0.06844376
134	0xbe0ebf32	-0.13940123
135	0x3dbc2db7	0.09188407
136	0x3d037d1e	0.032101743
137	0xbe157293	-0.14594488
138	0x3e0f45bc	0.13991445
139	0xbc6f0189	-0.014587768
140	0xbe0bcd77	-0.13652597
141	0x3df29aea	0.11845954
142	0x3b99c011	0.0046920856
143	0x3e09e912	0.13467816
144	0xbe3ee2aa	-0.18641153
145	0xbe34aacf	-0.17643283
146	0x3e72fcaf	0.23729204
147	0xbe3945dd	-0.18093057
148	0x3e76ecb5	0.24113734
149	0xbdcf9b60	-0.10137057
150	0xbdbdc3e5	-0.092658795
151	0x3e37d66b	0.17952888
152	0x3d85d32b	0.06534418
153	0xbe52085d	-0.20511003
154	0x3e859b66	0.26095122
155	0x3d184ea1	0.03718436
156	0x3e7a979c	0.24471897
157	0x3e843ad7	0.2582614
158	0xbe53f1de	-0.20697734
159	0xbd207699	-0.039175604
160	0x3dcdc51a	0.1004736
161	0x3c398fe3	0.011325809
162	0xbe1f9609	-0.15584578
163	0xbe613067	-0.2199112
164	0xbe3409b5	-0.17581828
165	0x3e53221a	0.20618477
166	0x3e632e63	0.22185664
167	0x3e585794	0.21127158
168	0x3dc5663a	0.09638639
169	0x3bed1ce5	0.0072361105
170	0xbd37706c	-0.04478495
171	0xbe0739d4	-0.13205653
172	0xbe2aac66	-0.16667327
173	0xbd842e64	-0.06454161
174	0xbe79ef4b	-0.2440769
175	0xbe5affc3	-0.21386628
176	0xbc7ab634	-0.01530223
177	0x3c588bb9	0.013216906
178	0xbddec852	-0.10878052
179	0x3dfc382c	0.123154014
180	0x3e70ab9a	0.23502961
181	0x3e0b1bda	0.13584843
182	0xbe51a090	-0.20471406
183	0x3e3dcddd	0.18535562
184	0x3d058cce	0.032604985
185	0x3d3960e3	0.045258414
186	0xbd5b1180	-0.053483486
187	0x3e8770ff	0.26453397
188	0x3e534704	0.20632559
189	0xbe598414	-0.2124179
190	0x3e5f7275	0.21821006
191	0xbd7845c4	-0.06061341
192	0x3e486e1a	0.1957325
193	0x3e4f5ccb	0.20250241
194	0xbe4360a4	-0.19079834
195	0x3d46ee76	0.048567258
196	0xbe4dec91	-0.20109774
197	0xbccced18	-0.025015399
198	0x3e8529b6	0.26008385
199	0x3d696220	0.056978345
200	0xbe0f6ea0	-0.14007044
201	0x3e3d6183	0.18494229
202	0x3e8383df	0.25686547
203	0xbe3c764b	-0.184045
204	0xbe83d0e2	-0.25745302
205	0xbe7ef317	-0.24897419
206	0x3cd35e61	0.02580184
207	0x3daf6cda	0.08565684
208	0x3d7c3383	0.061572563
209	0xbb313f15	-0.0027045656
210	0xbe654a2d	-0.22391577
211	0xbc567753	-0.013089973
212	0x3e27c2b4	0.16382867
213	0xbd8bd4ad	-0.06827674
214	0x3e60a98d	0.21939678
215	0x3e2b3271	0.1671846
216	0xbc877054	-0.016533054
217	0x3cc39352	0.023873959
218	0x3c3ea035	0.011634876
219	0x3ceab89e	0.028652485
220	0x3e16842d	0.14698859
221	0xbd249aac	-0.04018657
222	0x3e7468a7	0.23868047
223	0x3e398893	0.18118505
224	0x3e344b6b	0.17606895
225	0x3e29bcc8	0.1657592
226	0xbe5d29d0	-0.21597981
227	0xbdb7cd24	-0.08974674
228	0x3d9f7d8c	0.07787618
229	0x3e24e35c	0.16102356
230	0xbe63a8f3	-0.22232418
231	0xbe40bb2c	-0.188214
232	0x3e80ef09	0.2518237
233	0xbe742388	-0.23841679
234	0xbdf670f8	-0.12033266
235	0x3dbbcec7	0.09170299
236	0x3dd104ed	0.10206018
237	0xbe1cd9a6	-0.15317401
238	0xbdab2752	-0.08357109
239	0xbe1d41d9	-0.1535715
240	0x3e3325b1	0.17494847
241	0xbd1eeda2	-0.038800843
242	0x3e288166	0.16455612
243	0x3e1c2795	0.15249474
244	0x3e2dffec	0.16992158
245	0xbd4f28f9	-0.050576184
246	0xbd2e67d8	-0.042579502
247	0xbe1119da	-0.14170018
248	0x3e6da7d7	0.23208557
249	0xbe86bcec	-0.2631601
250	0x3e513c67	0.20433198
251	0x3e8daba0	0.27670002
252	0x3de1a1cd	0.11017189
253	0x3e021255	0.12702306
254	0x3e5ddfc2	0.21667388
255	0xbe1d3c83	-0.15355115

sequential/dense_1/MatMul f4 [8, 64]
0	0xbdd443b1	-0.103644736
1	0x3c97a239	0.018509971
2	0xbe4d79c3	-0.2006598
3	0x3e620287	0.22071277
4	0xbe5eb5ff	-0.21749114
5	0x3e81331a	0.252343
6	0x3e3fa288	0.18714345
7	0xbe1ba078	-0.15197933
8	0xbe5420de	-0.20715663
9	0x3d96190e	0.073289976
10	0x3e9d49fc	0.30720508
11	0x3e4b2717	0.1983913
12	0x3dd805a1	0.10547949
13	0xbe30232e	-0.1720092
14	0xbc35a164	-0.011085842
15	0xbe2281a1	-0.15869762
16	0xbe341fef	-0.17590307
17	0x3cd52f34	0.026023485
18	0x3e30323a	0.1720666
19	0xbe94d631	-0.29069665
20	0x3e17008f	0.14746307
21	0x3e3ccc8f	0.18437408
22	0x3d9d1ff1	0.07672108
23	0x3d844db6	0.06460135
24	0xbe33f6fb	-0.17574684
25	0xbe275e95	-0.16344674
26	0xbda678cb	-0.08128508
27	0xbda5a0d6	-0.08087318
28	0x3e5a4be9	0.2131802
29	0x3d9e0f37	0.07717746
30	0xbe80d6c1	-0.25163844
31	0x3e0ed3b2	0.13947943
32	0xbe8e6fa9	-0.27819565
33	0xbe8bbd96	-0.2729308
34	0xbdaf9ef4	-0.0857524
35	0x3dc0efef	0.09420764
36	0xbe65306b	-0.22381751
37	0x3e496993	0.1966918
38	0xbdbd4d22	-0.092432275
39	0xbe260431	-0.16212536
40	0x3d714600	0.058904648
41	0xbb858fc7	-0.0040759775
42	0xbdf7bae6	-0.12096195
43	0x3ddb1b3c	0.10698554
44	0xbcc5146a	-0.024057586
45	0xbe92a5df	-0.28642175
46	0xbdbc5368	-0.09195596
47	0x3e278eba	0.1636304
48	0xbe4a39d5	-0.19748624
49	0x3e0096e8	0.12557566
50	0x3e5028fe	0.20328137
51	0x3df48e02	0.11941148
52	0x3e546796	0.2074264
53	0xbc35aef9	-0.01108908
54	0x3e21f469	0.15815891
55	0x3e040696	0.12893137
56	0xba2dac7c	-0.00066251284
57	0xbe9934db	-0.29923138
58	0xbe88540f	-0.26626632
59	0xbbc5fe86	-0.0060423044
60	0xbe02956b	-0.12752311
61	0x3e6ee575	0.23329718
62	0x3d880ac9	0.06642682
63	0x3d900b65	0.07033423
64	0xbd888dfb	-0.066677056
65	0xbd33f4e8	-0.043934733
66	0x3e027491	0.12739779
67	0x3e0a0e89	0.13482107
68	0x3e852008	0.26001
69	0x3e55ff23	0.20898108
70	0xbe48b962	-0.19601968
71	0x3d24309a	0.040085413
72	0x3e308adb	0.17240469
73	0xbe847151	-0.25867704
74	0xbe9b5c58	-0.3034389
75	0x3d250d2a	0.040295757
76	0x3dbc866d	0.09205327
77	0xbe0a9ab7	-0.13535582
78	0xbd852756	-0.06501643
79	0xbc96dcdd	-0.018415863
80	0x3e24ed83	0.16106229
81	0xbe0ef6f5	-0.13961394
82	0x3e7bd284	0.24592024
83	0xbe1a5ff2	-0.15075663
84	0xbe11a1a9	-0.14221825
85	0x3e7e1b7d	0.24815173
86	0xbe93ff48	-0.28905702
87	0x3e5d610f	0.21619056
88	0xbe819c1a	-0.2531441
89	0xbd9db917	-0.07701319
90	0xbd80c598	-0.06287688
91	0xbdffc05a	-0.1248786
92	0xbe8d93ff	-0.27651975
93	0x3e103fa1	0.14086773
94	0x3e33579e	0.17513892
95	0xbed46ba3	-0.4148837
96	0x3da03fa1	0.07824636
97	0xbda65ea0	-0.08123517
98	0x3dc671cf	0.09689676
99	0x3e8e94e9	0.27847984
100	0xbe05a978	-0.13052928
101	0xbe69f448	-0.22847092
102	0xbd78644e	-0.060642533
103	0xbe93f5ea	-0.28898555
104	0xbd47cdad	-0.048780132
105	0xbde77814	-0.113022
106	0x3e939462	0.28824145
107	0x3ce30da0	0.027716458
108	0x3e31b5dd	0.17354532
109	0xbe7683b6	-0.24073681
110	0xbcadbeec	-0.021209203
111	0x3df943ac	0.121711105
112	0xbe61d5a1	-0.22054149
113	0xbe43d832	-0.1912544
114	0xbe979402	-0.29605108
115	0xbc01a313	-0.007912415
116	0x3d9c794a	0.076403216
117	0x3e5bbc2f	0.21458505
118	0x3e4bf6fa	0.19918433
119	0x3baa3ebe	0.0051954677
120	0x3e7214c5	0.23640735
121	0xbe0d3fb2	-0.13793829
122	0xbedbedbd	-0.42954817
123	0x3dbb7374	0.0915288
124	0x3cf254ed	0.029581511
125	0xbd3bc1f5	-0.04583927
126	0x3d2ebeae	0.042662315
127	0xbd590abf	-0.052988764
128	0x3e1722f7	0.14759432
129	0xbe551f2e	-0.20812675
130	0x3ded9e2a	0.11602433
131	0x3dd364fa	0.10321994
132	0xbb97563d	-0.0046184347
133	0xbcdd0e53	-0.02698437
134	0xbdb3dcf2	-0.08782376
135	0x3d2ddd7b	0.04244755
136	0xbe14099d	-0.14456792
137	0xbe609b21	-0.21934177
138	0xbe4222d3	-0.18958597
139	0x3d928f61	0.071562536
140	0x3e305667	0.1722046
141	0x3cb978fe	0.022640701
142	0x3d9f9b09	0.077932425
143	0xbee9ef4a	-0.45690376
144	0xbdd09987	-0.10185533
145	0x3d3ecd02	0.04658223
146	0x3d0cad60	0.03434503
147	0x3df8dfc2	0.121520534
148	0xbdc9e2b8	-0.09857696
149	0x3e8bec43	0.2732869
150	0xbd133991	-0.03594357
151	0x3e8bc854	0.27301276
152	0x3e4b6a61	0.19864799
153	0x3e8aad29	0.27085236
154	0xbde13d6e	-0.10998045
155	0xbe7feb8a	-0.24992195
156	0xb8a287c0	-7.7500474e-05
157	0x3ea94cc9	0.33066395
158	0xbe43cda2	-0.19121411
159	0x3eec2498	0.4612167
160	0x3783208d	1.5631575e-05
161	0x3dc01aa8	0.09380084
162	0xbf29e1d1	-0.66360193
163	0x3e23f0bc	0.16009802
164	0x3e51416c	0.20435113
165	0xbe9d3d54	-0.30710852
166	0xbe3f6608	-0.18691266
167	0xbc0fc333	-0.008774566
168	0x3e8dd188	0.27698922
169	0xbdce369d	-0.100690104
170	0x3e14cb1a	0.14530602
171	0x3e802218	0.2502601
172	0x3d17d60e	0.037069373
173	0x3ab9b1fb	0.0014167422
174	0xbe5df25c	-0.21674484
175	0x3e889a8c	0.2668041
176	0xbcaac969	-0.020847993
177	0xbe5d3390	-0.21601701
178	0x3dc10086	0.09423928
179	0x3c93b9ea	0.018032987
180	0xbcf1f9e5	-0.029538104
181	0x3e7523a7	0.23939382
182	0xbe231d7e	-0.15929219
183	0xbd715214	-0.058916166
184	0xbe28db9d	-0.16490026
185	0x3dcfa491	0.101388104
186	0x3de06fa6	0.10958795
187	0xbe728318	-0.23682821
188	0xbe3ed367	-0.18635331
189	0x3c05fab0	0.008177444
190	0x3dc91bfe	0.09819792
191	0x3e92796a	0.28608257
192	0x3e5bc185	0.2146054
193	0xbe863f4e	-0.26220173
194	0x3ba63648	0.005072389
195	0xbd328748	-0.043586046
196	0x3e6b1beb	0.22959869
197	0x3d1671d2	0.03672964
198	0x3e1a1088	0.15045369
199	0xbd158127	-0.036500122
200	0xbd2a0ac8	-0.041514188
201	0x3e730bcb	0.23734967
202	0x3d2d00d4	0.042237118
203	0xbe584060	-0.21118307
204	0xbcd843a1	-0.026399435
205	0x3da8b3e9	0.0823744
206	0x3cfdc3ca	0.030977149
207	0x3e036e47	0.12835036
208	0xbe3b7c48	-0.18309128
209	0xbda20469	-0.079109974
210	0xbe6ee41e	-0.23329207
211	0xbebb6337	-0.36599132
212	0x3cba24e9	0.022722678
213	0x3e7e2f17	0.24822651
214	0x3e17933d	0.1480226
215	0xbe981779	-0.29705408
216	0xbe471f3c	-0.19445509
217	0xbe11e3a8	-0.14247
218	0x3cb39520	0.021921694
219	0xbc00d34d	-0.007862878
220	0xbd93fd3d	-0.07226036
221	0xbe81a6c8	-0.25322556
222	0x3e1058a9	0.14096321
223	0x3e0cc3cc	0.13746566
224	0x3e9173ba	0.28408605
225	0x3d8fd6ac	0.07023367
226	0xbdd00d36	-0.1015877
227	0x3d443ed1	0.04791147
228	0x3d3200ee	0.043457918
229	0x3e742051	0.23840453
230	0x3e54d78c	0.2078535
231	0xbdfc5ac9	-0.123220034
232	0x3e5037b6	0.20333752
233	0x3ded61b1	0.11590899
234	0xbe437671	-0.1908815
235	0xbe86e4e6	-0.2634651
236	0x3e600220	0.2187581
237	0x3cfb9cf9	0.030714499
238	0x3dbd02e6	0.092290685
239	0xbe46d910	-0.1941874
240	0x3e8b9155	0.27259317
241	0x3e925670	0.28581572
242	0xbdd63390	-0.104590535
243	0x3c3371b4	0.010952402
244	0x3e57a21b	0.21057932
245	0x3d8affb6	0.06787054
246	0x3e88c4ee	0.26712745
247	0x3e5a86df	0.21340512
248	0xbe8ec461	-0.278842
249	0x3d58a103	0.052887928
250	0x3e567b55	0.20945485
251	0xbdecaf6b	-0.11556896
252	0x3e839b42	0.2570439
253	0xbcb21824	-0.021740027
254	0xbd9d16eb	-0.07670387
255	0xbd361904	-0.04445745
